CVND_Exercises/1_5_CNN_Layers/saved_models/model_1.pt (torch_old, 682030 bytes, 6 tensors)

classifier.fc1.weight f4 [100, 1690]
0.0026556838 -0.007084359 -0.015421702 0.020185163 -0.024082014 0.013581726 0.0031076462 -0.017104365
-0.016277192 0.01256367 0.009328903 -0.009335916 0.003223098 0.010415085 -0.0046498594 -0.016847711
0.031930123 -0.01901387 -0.017172005 -0.018206732 0.0024073555 0.007857575 0.000220918 -0.018956065
-0.029902346 0.013757049 -0.0031555109 0.005602429 0.014914626 0.01348989 -0.004242299 -0.025050491
-0.0008525243 -0.0016216746 -0.008634115 0.007583499 0.004394214 -0.009740363 -0.022530053 -0.020014884
-0.0084075965 -0.013746889 -0.0064986516 -0.01354246 0.03109535 -0.0033002978 -0.00027973656 0.0007325232
0.006431131 0.017197922 0.002651036 -0.015928296 -0.02651011 -0.025713094 0.00059613376 -0.00079757825
0.010139742 0.011193786 -0.008202085 0.0068159797 -0.014621538 0.0050603687 0.007003001 0.008708892
0.009787289 -0.007775798 0.010764495 0.0069936123 0.022933627 0.03777444 0.021726454 0.031197516
-0.00776969 -0.009995493 0.024573455 0.026548527 -0.0034359107 0.024996445 -0.007431149 -0.021918997
0.02809269 0.01000323 0.008743155 -0.02425853 0.029242067 0.009010763 0.023469502 0.013440232
-0.0084099695 0.016328525 0.009833159 -0.02874033 0.015072021 0.0029845461 0.019476667 0.04334924
-0.014511148 -0.0053145774 0.00035474746 -0.011447801 0.022478992 0.0076321824 0.0070528896 -0.008778325
-0.020832028 0.014484587 -0.01271896 0.009057732 0.028718576 0.009942193 0.01290419 0.02813822
-0.022200469 -0.013788462 -0.0032250737 0.0038189434 0.008669185 -0.007584945 -0.01778703 0.027643662
0.036382027 0.02524551 0.010055851 -0.002858294 0.03048705 0.01286899 0.027152414 0.017125944
0.007807589 0.013603768 -0.026715891 -0.016433176 0.0011046637 -0.0039160023 0.011333744 -0.007045869
0.02032199 0.019882618 0.026342347 -0.0070839575 0.039297484 0.021419842 -0.0072353017 -0.014482156
0.01048235 -0.0006532662 0.005735147 0.042179603 -0.011672206 0.03658561 0.025253458 -0.018177852
0.00637572 0.0074490546 -0.01845057 0.00067060866 -0.018683363 -0.021565083 -0.015852857 -0.006903099
0.023219911 0.017287426 0.012211349 0.033787105 -0.0053933524 -0.017582294 0.038822666 -0.020085
-0.0023812973 -0.010237018 -0.0022811983 -0.019782573 -0.01844629 0.015099457 -0.012458957 -0.012378507
0.015099883 -0.0252708 -0.011288684 -0.0023512647 0.0067553557 -0.02840859 -0.002237041 -0.009821475
-0.029489132 -0.022796309 -0.011422129 -0.0010191745 -0.009432216 -0.023414485 -0.018118087 -0.0122841485
-0.0016542186 -0.0328783 0.0022518246 -0.01746209 -0.025938326 -0.027026463 -0.0056203473 0.014276924
-0.0121236555 0.00010409965 -0.024766706 -0.0026441857 -0.032310236 -0.0146066565 0.0048466856 -0.011348715
0.0018545446 -0.006219801 -0.017027503 -0.029513538 -0.027280545 0.0024811078 -0.0017621209 -0.0040770634
-0.0062142243 -0.023845837 -0.007284793 -0.015660278 0.011601153 -0.004598387 -0.011854891 -0.018091751
-0.027029932 -0.026550878 -0.011481745 -0.0033299772 0.007973006 -0.01621099 -0.010315184 -0.03228703
0.0039841346 -0.03314154 -0.04180865 -0.010437831 -0.015491353 0.0030559655 -0.00088022504 -0.024260817
0.021293133 0.015844971 0.005671998 -0.0048673064 -0.009428595 -0.026222482 -0.0280986 -0.03608666
-0.0050467467 -0.0011161971 0.0012633989 0.003577712 0.00790497 -0.0069096726 0.0024793644 0.010877196
00000000: fb0a 2e3b e923 e8bb 4eab 7cbc 5b5b a53c
00000010: a547 c5bc e385 5e3c a7a9 4b3b 741e 8cbc
00000020: bf57 85bc dad7 4d3c 41d8 183c abf5 18bc
00000030: 9d3a 533b 08a4 2a3c d95d 98bb 3604 8abc
00000040: 29c9 023d fac2 9bbc 4eac 8cbc 4926 95bc
00000050: b9c4 1d3b 0fbd 003c 39a6 6739 c049 9bbc
00000060: c4f5 f4bc 3f65 613c b0cc 4ebb 9594 b73b
00000070: 7a5c 743c b304 5d3c fc02 8bbb b036 cdbc
00000080: f07b 5fba 5f8e d4ba 1a76 0dbc 007f f83b
00000090: 57fd 8f3b 0b96 1fbc f290 b8bc 41f6 a3bc
000000a0: 04c0 09bc a23a 61bc a4f2 d4bb 32e1 5dbc
000000b0: adbb fe3c cf49 58bb 9ba9 92b9 cd06 403a
000000c0: 3dbc d23b a8e2 8c3c 01bd 2d3b 0f7c 82bc
000000d0: bb2b d9bc 44a4 d2bc dc45 1c3a 9214 51ba
000000e0: 2921 263c 2466 373c 0a62 06bc 9558 df3b
000000f0: 2d8f 6fbc 73d1 a53b 6e79 e53b beaf 0e3c
00000100: de5a 203c 1fcc febb 905d 303c ac2a e53b
00000110: 4ddf bb3c 5fb9 1a3d adfb b13c ef91 ff3c
00000120: e298 febb 23c4 23bc 454e c93c 4c7c d93c
00000130: 042d 61bb 58c5 cc3c ff80 f3bb 788f b3bc
00000140: a422 e63c 96e4 233c 733f 0f3c d3b9 c6bc
00000150: 0f8d ef3c e1a1 133c 1d43 c03c 6b34 5c3c
00000160: f8c9 09bc 66c3 853c 421b 213c d770 ebbc
00000170: a3f0 763c 6098 433b 888d 9f3c f98e 313d
00000180: 2bc0 6dbc e825 aebb 66fd b939 8f8f 3bbc
00000190: dd25 b83c 6317 fa3b ed1b e73b f7d2 0fbc
000001a0: eea7 aabc c350 6d3c 2f63 50bc e266 143c
000001b0: 3843 eb3c 94e4 223c 196c 533c 2082 e63c
000001c0: c2dd b5bc 00e9 61bc c25b 53bb 3d47 7a3b
000001d0: 3309 0e3c 218b f8bb 1bb6 91bc f674 e23c
000001e0: 5205 153d accf ce3c 4cc1 243c 3752 3bbb
000001f0: fabf f93c 75d8 523c bd6e de3c b54b 8c3c
00000200: ced6 ff3b 57e2 5e3c 49db dabc de9e 86bc
00000210: 5dca 903a cf51 80bb 2bb1 393c 08e1 e6bb
00000220: 4d7a a63c dfe0 a23c e8cb d73c 8b20 e8bb
00000230: 66f6 203d aa78 af3c 1c16 edbb 9146 6dbc
00000240: 2abe 2b3c f43f 2bba e6ed bb3b 85c4 2c3d
00000250: c83c 3fbc cbda 153d 57e0 ce3c b8e9 94bc
00000260: 6aeb d03b 3317 f43b a625 97bc c9cb 2f3a
00000270: da0d 99bc 42a9 b0bc dadd 81bc 6433 e2bb
00000280: af37 be3c 5c9e 8d3c 1c12 483c 5964 0a3d
00000290: b8ba b0bb be08 90bc 8404 1f3d 4c89 a4bc
000002a0: 8a0f 1cbb 2ab9 27bc 2880 15bb 100f a2bc
000002b0: ad1c 97bc b763 773c a720 4cbc 39cf 4abc
000002c0: 8065 773c b504 cfbc 2cf4 38bc ad17 1abb
000002d0: 085c dd3b 22b9 e8bc 529b 12bb 40ea 20bc
000002e0: 3193 f1bc 53bf babc e223 3bbc d295 85ba
000002f0: 9589 1abc bccf bfbc 626c 94bc 7443 49bc
00000300: 5ed2 d8ba 65ab 06bd 5993 133b a80c 8fbc
00000310: 9d7c d4bc 9a66 ddbc e42a b8bb c2e9 693c
00000320: 4ca2 46bc 1350 da38 8ce3 cabc 134a 2dbb
00000330: bd57 04bd c250 6fbc f2d0 9e3b f6ef 39bc
00000340: 3114 f33a 79cf cbbb 437d 8bbc 60c6 f1bc
00000350: 737b dfbc 159a 223b f7f6 e6ba e398 85bb
00000360: b1a0 cbbb 5858 c3bc 46b5 eebb fc49 80bc
00000370: c312 3e3c 11ae 96bb 043b 42bc 2735 94bc
00000380: e06d ddbc 3a81 d9bc ee1d 3cbc bf3b 5abb
00000390: 36a1 023c e9cc 84bc 0401 29bc 683f 04bd
000003a0: 588d 823b 6cbf 07bd 8c3f 2bbd 7003 2bbc
000003b0: 72cf 7dbc 9846 483b e7be 66ba 9fbe c6bc
000003c0: f06e ae3c 50cd 813c 2bdc b93b ed7d 9fbb
000003d0: 657a 1abc 88d0 d6bc 092f e6bc 9bcf 13bd
000003e0: 2e5f a5bb 5c4d 92ba a298 a53a 0c78 6a3b
000003f0: d983 013c 896a e2bb d57c 223b 4436 323c

classifier.fc1.bias f4 [100]
0.0065444796 0.22446723 -0.020877307 0.012470217 0.081014924 -0.013675733 -0.06722922 -0.07071896
-0.014184932 0.010457571 0.0026237338 0.0103969425 -0.04926469 -0.01867799 0.020769166 0.0028413113
0.0041532293 -0.00010864327 -0.03210708 0.06624522 -0.03105425 -0.012836748 0.00067582174 -0.018846624
-0.02804876 0.05419266 -0.017649064 -0.00079196406 0.122637466 -0.0035167076 -0.032033347 0.19065793
0.011998201 -0.008422097 0.0006218553 0.041142926 0.04222611 -0.08421309 0.00047485105 -0.026776668
-0.026813205 -0.16486107 -0.023130404 -0.020371119 -0.0029592616 -0.027449047 -0.010230252 -0.010644813
-0.035582986 -0.00037630033 -0.033932474 -0.029573482 -0.016485058 -0.07820969 -0.18159251 -0.007926964
-0.0011687733 -0.026207255 -0.0708159 -0.034488015 -0.03923741 0.009545073 0.004962344 -0.0315034
-0.0030565525 0.0010380084 0.17336795 -0.013107271 -0.027688917 0.0026732096 -0.01980316 -0.029652137
-0.122359805 -0.016737413 0.15587792 0.0006246274 0.091722816 0.020163389 0.0025725812 -0.124907404
-0.10502307 -0.010251073 0.07772347 -0.11276431 -0.014188248 0.011186088 -0.031455047 -0.026760763
-0.0052835187 -0.0852741 -0.012076773 0.008376876 0.010635068 -0.0059135696 0.001743996 -0.014164762
-0.044062 -0.0092168655 -0.0064233933 -0.035154186
00000000: 1373 d63b bdda 653e e306 abbc e24f 4c3c
00000010: 27eb a53d 2e10 60bc 79af 89bd 1ad5 90bd
00000020: eb67 68bc 3b56 2b3c f3f2 2b3b f057 2a3c
00000030: c6c9 49bd 9602 99bc 1924 aa3c 4b35 3a3b
00000040: d017 883b 69d7 e3b8 b782 03bd 93ab 873d
00000050: 7c65 febc 3951 52bc a129 313a 3c64 9abc
00000060: 83c6 e5bc 1ff9 5d3d c594 90bc cf9b 4fba
00000070: 5a29 fb3d 9078 66bb 6635 03bd d53b 433e
00000080: 1a94 443c d6fc 09bc 0104 233a 7c85 283d
00000090: 49f5 2c3d ea77 acbd 6ef5 f839 be5a dbbc
000000a0: 5ea7 dbbc 57d1 28be f97b bdbc 55e1 a6bc
000000b0: 2cf0 41bb d3dc e0bc c99c 27bc 9567 2ebc
000000c0: 77bf 11bd 2d4a c5b9 c7fc 0abd 1644 f2bc
000000d0: ac0b 87bc 672c a0bd 63f3 39be 19e0 01bc
000000e0: 8631 99ba 99b0 d6bc ed07 91bd 4e43 0dbd
000000f0: 68b7 20bd f062 1c3c 299b a23b b609 01bd
00000100: 7150 48bb c80d 883a 5e87 313e e1bf 56bc
00000110: ded3 e2bc 0431 2f3b 3d3a a2bc 0ae9 f2bc
00000120: c797 fabd e61c 89bc 769e 1f3e 09be 233a
00000130: 2cd9 bb3d b12d a53c c098 283b 74cf ffbd
00000140: 5616 d7bd 1ef4 27bc 7c2d 9f3d f9f0 e6bd
00000150: d375 68bc db45 373c 02d7 00bd 6339 dbbc
00000160: 5e21 adbb 30a4 aebd a8dd 45bc 2a3f 093c
00000170: b53e 2e3c 9ec6 c1bb cc96 e43a 5113 68bc
00000180: 5b7a 34bd 5602 17bc 547b d2bb d6fd 0fbd

classifier.fc2.weight f4 [10, 100]
-0.08115291 -0.10828165 0.028741695 0.009395957 0.07835755 0.08461662 -0.062119704 -0.97156674
-0.09275262 0.057397272 -0.06338078 -0.011532352 0.33025497 -0.083510734 -0.7711039 0.058746725
-0.10796377 0.07093847 0.030973213 0.7445127 0.040957868 0.060387224 -0.053927112 -0.042670924
0.038256966 -0.25844404 0.0035975287 0.046589162 0.33219752 -0.28562725 -0.06813251 0.41756037
-0.59234804 -0.06767667 -0.01656197 0.20524687 0.039826293 -0.1180004 0.06864862 0.0023150756
0.029407602 0.16593017 -0.036498412 -0.06556179 0.0688126 -0.91803956 0.08442103 0.032426458
0.07231091 0.07520148 -0.013860829 -0.31191418 0.04972878 0.044135835 -0.24069642 0.0077274158
-0.21681996 -0.072615966 -1.0971488 0.047985826 0.04563745 0.52122664 -0.07380602 -0.082824335
-0.08632025 -0.025225865 0.9108525 0.07534553 0.070236385 0.05688593 -0.043322545 -0.018049216
-0.01274551 0.082659096 0.24876872 -0.1034652 -0.31613973 0.31942552 0.029369839 -1.3651767
-0.32255048 0.0054164007 0.41670173 0.21432492 0.01135313 -0.029274298 -0.73769414 -0.00010829434
0.030952536 -0.6664631 0.048167154 -0.053124476 0.035885148 0.06947368 -0.08229432 0.0449343
-0.035293426 -0.07226958 -0.074211344 -0.05252686 0.08646909 0.6306407 -0.047922205 0.0006602183
0.7145526 -0.10714628 -0.12909381 0.046423566 -0.018144444 -0.006960707 0.021043824 -0.0664916
0.70518994 0.009985466 0.20379083 0.07387591 -0.10251318 -0.088046245 -0.012262641 0.14814493
-0.04877062 0.065623395 -0.030576091 0.066179216 0.06915477 -0.9873396 -0.018438578 -0.10466435
-0.07647483 -0.24875829 0.055264298 -1.3474336 -0.28803727 -0.018691322 0.03217336 -1.1167493
0.32658836 -1.933203 0.04121549 0.045771446 0.053797595 -1.7923295 -0.05463469 -0.07137801
0.0077646086 0.6022718 -0.041413046 -0.035270903 -0.058284152 -0.0030758025 -0.021314975 0.5099186
0.06543689 0.26169604 0.8491523 -0.07024277 0.22018799 -0.102011435 -0.7559259 -0.033004604
-0.064455874 -0.94736564 0.05370019 -0.040472146 0.07418772 -0.06773999 -0.7515461 0.08189972
0.07679694 0.028086113 0.069081984 -0.02777372 -0.56244665 -0.016539754 0.4723538 -0.08632018
0.95490867 -1.0300182 -0.013811752 0.19992425 -0.8842039 0.05612915 0.64421976 0.25735804
-0.06047578 0.08956479 -0.4538201 -0.012507595 0.98151165 -0.8260876 -0.05400701 -0.08800005
-0.034654345 -0.061959986 0.07755029 0.018906448 0.03931479 0.0045709168 0.074580684 -0.049391136
-0.04056973 0.7045067 -0.01880253 -0.08334173 -1.609408 0.0055871275 -0.028075114 0.12316043
-0.10091757 0.053526714 0.03647611 -0.0773401 -0.29187843 -0.11126081 -0.468051 0.036155373
-0.030389609 -0.023680884 0.004705459 -2.284819 -0.024592694 -0.10120203 -0.04612939 0.06464672
0.047658406 -0.0063684788 -0.07999912 -0.09062791 0.1802853 0.47987503 0.085963115 0.53989756
0.016203985 -0.044245243 0.07936258 0.08031937 -0.027409047 -0.30449995 -0.0495621 -0.09108092
0.06496947 -0.4203619 0.03280921 -0.029215854 0.024411535 0.1715865 -0.0331557 -0.061766278
-0.03401167 0.027982516 -0.061054606 -0.5919002 0.012515854 -0.23884425 -0.49272355 -0.011493128
00000000: 7f33 a6bd c5c2 ddbd b473 eb3c 80f1 193c
00000010: ec79 a03d 7a4b ad3d 3b71 7ebd 99b8 78bf
00000020: 16f5 bdbd 6719 6b3d c8cd 81bd 31f2 3cbc
00000030: 2e17 a93e ad07 abbd 1167 45bf 68a0 703d
00000040: 1c1c ddbd 3048 913d 89bb fd3c 6298 3e3f
00000050: 70c3 273d 9858 773d ade2 5cbd b5c7 2ebd
00000060: 56b3 1c3d c752 84be 84c4 6b3b 47d4 3e3d
00000070: cb15 aa3e bc3d 92be 0f89 8bbd 79ca d53e
00000080: 1fa4 17bf 119a 8abd f8ac 87bc 3c2c 523e
00000090: e520 233d 32aa f1bd a697 8c3d 86b8 173b
000000a0: 36e8 f03c 99e9 293e 5c7f 15bd 4245 86bd
000000b0: 9fed 8c3d a404 6bbf efe4 ac3d 9bd1 043d
000000c0: be17 943d 3c03 9a3d 8818 63bc 37b3 9fbe
000000d0: 68b0 4b3d c7c7 343d 1f79 76be 4336 fd3b
000000e0: 0d06 5ebe aeb7 94bd 5f6f 8cbf c98c 443d
000000f0: 56ee 3a3d 1c6f 053f 9c27 97bd ce9f a9bd
00000100: acc8 b0bd 79a6 cebc a12d 693f c24e 9a3d
00000110: 18d8 8f3d 3901 693d fb72 31bd f3db 93bc
00000120: 8bd2 50bc 2c49 a93d 3abd 7e3e 90e5 d3bd
00000130: 11dd a1be be8b a33e 0499 f03c 1cbe aebf
00000140: 5625 a5be 107c b13b ee59 d53e fe77 5b3e
00000150: 7b02 3a3c a7d0 efbc 86d9 3cbf 151c e3b8
00000160: 2c90 fd3c 539d 2abf ec4a 453d 0d99 59bd
00000170: 4efc 123d 3748 8e3d ed89 a8bd 070d 383d
00000180: d78f 10bd 1302 94bd 1efc 97bd 6826 57bd
00000190: b516 b13d ab71 213f 134a 44bd 8012 2d3a
000001a0: ebec 363f 826f dbbd 2b31 04be a326 3e3d
000001b0: a8a3 94bc a416 e4bb 1964 ac3c bf2c 88bd
000001c0: 5487 343f 149a 233c 8bae 503e 414c 973d
000001d0: 6ef2 d1bd 9751 b4bd 3fe9 48bc 4eb3 173e
000001e0: b4c3 47bd 8f65 863d b67a fabc f888 873d
000001f0: 04a1 8d3d 4ac2 7cbf 800c 97bc 435a d6bd
00000200: d69e 9cbd 7eba 7ebe d15c 623d b478 acbf
00000210: 9f79 93be 8b1e 99bc 37c8 033d a4f1 8ebf
00000220: 9736 a73e 3273 f7bf 93d1 283d d77a 3b3d
00000230: de5a 5c3d 0e6b e5bf a0c8 5fbd a22e 92bd
00000240: 426e fe3b 7c2e 1a3f baa0 29bd 3978 10bd
00000250: 5dbb 6ebd 6793 49bb be9c aebc 068a 023f
00000260: c703 863d 06fd 853e 0c62 593f 71db 8fbd
00000270: f678 613e 5feb d0bd 5c84 41bf d62f 07bd
00000280: 7101 84bd 8e86 72bf bbf4 5b3d 1fc6 25bd
00000290: bbef 973d 44bb 8abd 5365 40bf 0abb a73d
000002a0: b747 9d3d d914 e63c db7a 8d3d b685 e3bc
000002b0: 81fc 0fbf 617e 87bc 5bd8 f13e a2c8 b0bd
000002c0: e574 743f a3d7 83bf b04a 62bc f1b8 4c3e
000002d0: 305b 62bf aee7 653d 96eb 243f 6fc4 833e
000002e0: 74b5 77bd bf6d b73d 1c5b e8be a8ec 4cbc
000002f0: 5944 7b3f 7a7a 53bf 7436 5dbd 5f39 b4bd
00000300: b7f1 0dbd c1c9 7dbd b0d2 9e3d b2e1 9a3c
00000310: 8c08 213d a1c7 953b c2bd 983d 5c4e 4abd
00000320: 722c 26bd 8d5a 343f c307 9abc 12af aabd
00000330: 1501 cebf 3914 b73b c8fd e5bc 893b fc3d
00000340: dfad cebd d43e 5b3d f967 153d 7d64 9ebd
00000350: 1771 95be b5dc e3bd 61a4 efbe a817 143d
00000360: a1f3 f8bc 6afe c1bc 4030 9a3b 793a 12c0
00000370: 9e76 c9bc 0343 cfbd 2cf2 3cbd 8065 843d
00000380: 7635 433d acae d0bb 94d6 a3bd 209b b9bd
00000390: b69c 383e 2eb2 f53e 6e0d b03d ba36 0a3f
000003a0: 38be 843c 803a 35bd d988 a23d 7b7e a43d
000003b0: f088 e0bc 6be7 9bbe a101 4bbd a288 babd
000003c0: b70e 853d ad39 d7be f362 063d 1656 efbc
000003d0: b3fa c73c 5fb4 2f3e 45ce 07bd a3fe 7cbd
000003e0: d24f 0bbd 973b e53c 6514 7abd c686 17bf
000003f0: 4c0f 4d3c 9693 74be 4346 fcbe ac4d 3cbc

classifier.fc2.bias f4 [10]
-0.07614293 -0.04011846 0.18095574 -0.15950587 -0.12061982 0.27844167 -0.069571495 0.05725781
-0.096346155 0.25021058
00000000: d3f0 9bbd 4153 24bd 764c 393e 8255 23be
00000010: 8607 f7bd e88f 8e3e 807b 8ebd 2a87 6a3d
00000020: 2251 c5bd 9a1b 803e

conv1.weight f4 [10, 1, 3, 3]
-0.115513325 -0.14483628 -0.06096387 -0.22706835 -0.32602632 0.14319873 0.056239694 -0.3242855
0.27926168 -0.22678027 -0.0034545362 0.26688346 0.25427225 -0.2583714 0.31660613 0.24954978
-0.07020149 0.15861142 0.03872657 -0.32427165 0.27423087 0.18558165 -0.2857843 -0.233857
-0.10629499 -0.041485786 0.27224365 0.32548693 0.04240963 -0.27798435 0.26624003 0.03660038
0.28416148 0.061428934 -0.26579198 -0.13530974 -0.30681345 -0.16488051 -0.23331892 0.26498404
-0.15418491 -0.10066208 0.011923671 0.12713048 -0.031570286 0.03913334 0.14762601 -0.2591886
-0.21889131 0.06857911 0.10928488 0.025780678 -0.022156477 0.08604905 0.072721004 0.19333294
-0.034808278 0.2638586 0.1751875 -0.08264318 -0.31122684 0.3201587 0.19687828 0.09003067
-0.32569417 -0.16477689 0.028108835 -0.22455499 0.007315278 -0.32195967 0.25412223 0.3267227
-0.088114664 0.18607166 -0.15158682 -0.04820013 -0.13099203 -0.30550474 -0.24734649 0.019210339
0.095777154 -0.30947095 -0.31401336 -0.15591085 0.24455038 0.26840302 0.060470313 -0.20018964
0.10622597 0.26529077
00000000: 4092 ecbd f64f 14be 40b5 79bd 9b84 68be
00000010: ecec a6be b0a2 123e 985b 663d c008 a6be
00000020: 63fb 8e3e 1639 68be 8065 62bb f3a4 883e
00000030: f92f 823e 4249 84be 331a a23e fa89 7f3e
00000040: ccc5 8fbd 086b 223e c09f 1e3d ef06 a6be
00000050: fd67 8c3e 1e09 3e3e 5252 92be 3678 6fbe
00000060: 30b1 d9bd 00ed 29bd 8563 8b3e 39a6 a63e
00000070: b8b5 2d3d f753 8ebe 9d50 883e 48ea 153d
00000080: 9d7d 913e e89c 7b3d e315 88be a38e 0abe
00000090: a716 9dbe 70d6 28be 28eb 6ebe fdab 873e
000000a0: a6e2 1dbe ec27 cebd 805b 433c 7e2e 023e
000000b0: d84f 01bd 484a 203d 462b 173e 5eb4 84be
000000c0: 0b25 60be 3473 8c3d c0d0 df3d 0032 d33c
000000d0: 8081 b5bc 7c3a b03d c0ee 943d 12f9 453e
000000e0: 2093 0ebd 7918 873e 5a64 333e d440 a9bd
000000f0: 2059 9fbe d7eb a33e 769a 493e 0062 b83d
00000100: 63c1 a6be 46bb 28be 8044 e63c bef1 65be
00000110: 00b5 ef3b e6d7 a4be 4f1c 823e 3348 a73e
00000120: 7675 b4bd 9289 3e3e 9339 1bbe 806d 45bd
00000130: c622 06be 1e6b 9cbe 6648 7dbe 005f 9d3c
00000140: d026 c43d fa72 9ebe 5cc6 a0be 18a7 1fbe
00000150: 6a6b 7a3e 1f6c 893e b8af 773d 83fe 4cbe
00000160: 008d d93d 31d4 873e

conv1.bias f4 [10]
0.14933887 0.07825479 -0.014172673 -0.2069447 -0.27652225 0.18048754 0.19507411 -0.01785943
-0.26018953 0.21538076
00000000: 4aec 183e 0c44 a03d 8034 68bc 50e9 53be
00000010: 5394 8dbe bad1 383e 82c1 473e f04d 92bc
00000020: 9037 85be c68c 5c3e
